WARNING:tensorflow:From /opt/conda/lib/python3.7/site-packages/tensorflow/python/framework/op_def_library.py:263: colocate_with (from tensorflow.python.framework.ops) is deprecated and will be removed in a future version.
Instructions for updating:
Colocations handled automatically by placer.
_________________________________________________________________
Layer (type)                 Output Shape              Param #   
=================================================================
flatten_1 (Flatten)          (None, 784)               0         
_________________________________________________________________
dense_1 (Dense)              (None, 50)                39250     
_________________________________________________________________
dense_2 (Dense)              (None, 50)                2550      
_________________________________________________________________
dense_3 (Dense)              (None, 50)                2550      
_________________________________________________________________
dense_4 (Dense)              (None, 50)                2550      
_________________________________________________________________
dense_5 (Dense)              (None, 50)                2550      
_________________________________________________________________
dense_6 (Dense)              (None, 50)                2550      
_________________________________________________________________
dense_7 (Dense)              (None, 50)                2550      
_________________________________________________________________
dense_8 (Dense)              (None, 50)                2550      
_________________________________________________________________
dense_9 (Dense)              (None, 50)                2550      
_________________________________________________________________
dense_10 (Dense)             (None, 50)                2550      
_________________________________________________________________
dense_11 (Dense)             (None, 50)                2550      
_________________________________________________________________
dense_12 (Dense)             (None, 50)                2550      
_________________________________________________________________
dense_13 (Dense)             (None, 50)                2550      
_________________________________________________________________
dense_14 (Dense)             (None, 50)                2550      
_________________________________________________________________
dense_15 (Dense)             (None, 10)                510       
=================================================================
Total params: 72,910
Trainable params: 72,910
Non-trainable params: 0
_________________________________________________________________
WARNING:tensorflow:From /opt/conda/lib/python3.7/site-packages/tensorflow/python/ops/math_ops.py:3066: to_int32 (from tensorflow.python.ops.math_ops) is deprecated and will be removed in a future version.
…
